best_model.pth (torch, 875435 bytes, 54 tensors)

patch_embed.weight f4 [128, 3, 3, 3]
0	0xbdeee97c	-0.11665627
1	0xbe195241	-0.14972784
2	0x3c77e17b	0.015129442
3	0x3e3f8561	0.18703224
4	0x3dbc2185	0.09186081
5	0xbe00dacc	-0.12583464
6	0xbdf09a18	-0.11748141
7	0x3d97d649	0.074139185
8	0x3e301776	0.1719645
9	0xbdda8d92	-0.10671534
10	0x3e265a39	0.16245355
11	0xbe2bf9bd	-0.16794486
12	0xbe21484c	-0.15750235
13	0xbdb900cf	-0.09033357
14	0xbd5f8944	-0.054574266
15	0x3def087a	0.11671539
16	0xbe198825	-0.14993341
17	0x3df645e6	0.12025051
18	0xbd9e7aac	-0.077382416
19	0xbde02b1e	-0.10945724
20	0xbe279627	-0.16365872
21	0xbd807006	-0.06271367
22	0xbe22e047	-0.15905868
23	0xbb9d99cb	-0.0048095933
24	0xbe301d82	-0.17198756
25	0xbde54255	-0.111942925
26	0x3e2f3f77	0.17114054
27	0xbb9157fc	-0.0044355374
28	0x3e070bd4	0.13188106
29	0xbde820b7	-0.11334365
30	0xbdae3254	-0.08505693
31	0xbe2abbf9	-0.16673268
32	0xbb15f9f0	-0.002288457
33	0xbe1acd3a	-0.1511735
34	0xbe087c1c	-0.13328594
35	0xbc6d1a3d	-0.014471588
36	0xbe23f440	-0.16011143
37	0xbbc70da7	-0.0060746255
38	0xbe41481b	-0.18875162
39	0xbd370ded	-0.044691015
40	0xbda3ec76	-0.08004086
41	0x3e21cea9	0.15801491
42	0xbe149393	-0.1450942
43	0x3db3db97	0.08782118
44	0xbdf11932	-0.11772384
45	0x3e1f286c	0.15542763
46	0xbe456c54	-0.19279605
47	0x3e03bedb	0.12865774
48	0xbe366fd4	-0.17816097
49	0xbe3c43f5	-0.18385299
50	0xbd05160f	-0.03249174
51	0xbd801dd3	-0.062556885
52	0x3d2f52db	0.042803627
53	0x3dc4c22e	0.09607349
54	0xbe043d6a	-0.12914053
55	0xbda8a9c2	-0.08235504
56	0xbd789352	-0.06068737
57	0xbc8eb5e4	-0.017420717
58	0xbe28ed75	-0.16496833
59	0xbde8f2b4	-0.11374417
60	0x3dab2def	0.083583705
61	0x3d9bb7e7	0.07603436
62	0x3d64abba	0.055827834
63	0x3e1316ea	0.1436421
64	0x3cc686e9	0.024234252
65	0xbe01e27d	-0.12684055
66	0x3d209c4d	0.03921156
67	0xbe255f2e	-0.1614959
68	0x3e1c8c22	0.15287831
69	0x3d25e3ad	0.04050033
70	0xbcb69a9c	-0.02229052
71	0x3c98aaeb	0.018636188
72	0xbcaab9f5	-0.020840624
73	0x3d639afe	0.055567734
74	0xbe0f1e2c	-0.13976353
75	0x3d383526	0.04497256
76	0x3bc4bc23	0.006003873
77	0xbcb73441	-0.022363784
78	0xbdfe09d2	-0.12404217
79	0xbe36e2f1	-0.17860009
80	0xbe19f2bf	-0.15034007
81	0xbe4bc5f6	-0.19899735
82	0x3dd44bb5	0.103660025
83	0xbd578a63	-0.05262221
84	0x3d8d0fcf	0.06887781
85	0xbdec6d05	-0.11544231
86	0x3c98cd67	0.018652631
87	0x3dd90289	0.10596187
88	0x3dba4f0b	0.090971075
89	0x3d81544b	0.06314906
90	0x3dad05d6	0.08448379
91	0x3ca62856	0.020282906
92	0x3dcc1099	0.09964103
93	0x3d19c704	0.03754331
94	0x3d7d1af8	0.061793298
95	0xbd3ff542	-0.046864755
96	0xbdc0a7ed	-0.09407029
97	0x3cf67aca	0.030087847
98	0x3e15d0b4	0.14630395
99	0x3e195a2e	0.14975807
100	0x3e15dd7f	0.14635275
101	0xbdae62d7	-0.08514946
102	0x3e0cf038	0.13763511
103	0xbd45fa5a	-0.048334457
104	0x3dc34855	0.095352806
105	0xbe4271c1	-0.18988706
106	0x3db89a67	0.09013825
107	0x3dc989da	0.09840746
108	0xbd8d21a6	-0.068911836
109	0xbd81b48a	-0.06333263
110	0xbda60177	-0.08105748
111	0xbe36ca53	-0.17850618
112	0xbd4b7da8	-0.049680382
113	0xbdea98c8	-0.11454922
114	0x3e241391	0.16023089
115	0xbd8a3fa5	-0.067504205
116	0x3de9c3ee	0.11414324
117	0xbdf49a2e	-0.1194347
118	0x3da63164	0.08114889
119	0xbe3c4532	-0.18385771
120	0x3d871b0e	0.06596957
121	0xbd453ade	-0.048151843
122	0x3e11a8b2	0.14224508
123	0x3d502dad	0.05082481
124	0xbe021ef1	-0.12707116
125	0x3e30eadd	0.17277093
126	0xbd0b81ad	-0.034059215
127	0xbe2347bb	-0.15945332
128	0xbd98e2c6	-0.074651286
129	0xbdfa07a1	-0.12208486
130	0xbdc24d9f	-0.09487461
131	0x3d6554b8	0.055988997
132	0xbdebe687	-0.11518579
133	0xbe04eb3e	-0.12980363
134	0xbe28ec1c	-0.16496319
135	0xbe2c77ca	-0.16842571
136	0xbcc7faae	-0.024411526
137	0xbc9d8077	-0.019226296
138	0xbdf0a4f7	-0.117502145
139	0x3e4ccf68	0.20000994
140	0x3d486f7f	0.048934456
141	0xbe272bc0	-0.16325283
142	0x3d834cb5	0.06411115
143	0x3d2f042f	0.0427286
144	0x3882cd97	6.237177e-05
145	0xbe153af4	-0.1457327
146	0x3e1741d4	0.14771205
147	0xbd066870	-0.032814443
148	0xbd916e65	-0.07101134
149	0x3d19366c	0.037405416
150	0x3c33f8c6	0.010984605
151	0xbe3fb589	-0.18721594
152	0xbb578f74	-0.0032891901
153	0x3d74f924	0.05980791
154	0xbd97b5af	-0.074077
155	0xbde97425	-0.11399106
156	0x3e3f2fcb	0.18670575
157	0x3e14c7d4	0.14529353
158	0xbdc6647e	-0.09687136
159	0xbdc1f70e	-0.0947095
160	0x3d662513	0.0561877
161	0xbe038acf	-0.1284592
162	0x3cf12412	0.029436145
163	0x3e4d5764	0.20052868
164	0xbda4d52a	-0.0804847
165	0xbe2edd6f	-0.17076658
166	0x3c3e31a1	0.011608512
167	0x3dabd75a	0.083906844
168	0xbdc29d22	-0.09502627
169	0x3d3c19d9	0.045923088
170	0x3e3181a8	0.17334616
171	0xbe1c0293	-0.15235357
172	0xbd845b0f	-0.064626805
173	0xbc8cf07c	-0.017204516
174	0xbd9bf6f6	-0.076154634
175	0xbe211f65	-0.15734632
176	0x3e1782f8	0.14796054
177	0x3cb43f30	0.022002786
178	0x3d92b9e1	0.0716436
179	0x3bf1c687	0.0073784026
180	0xbe22245e	-0.15834185
181	0xbe1ab4b2	-0.15107992
182	0xbe1a11eb	-0.15045898
183	0x3e55e090	0.20886445
184	0x3e3c4670	0.18386245
185	0x3dfc0d3e	0.12307213
186	0x3da32140	0.07965326
187	0x3e2da362	0.16956857
188	0x3d4b5e71	0.049650613
189	0x3d170bab	0.03687636
190	0xbb1e13b5	-0.0024120633
191	0xbe35bb34	-0.17747194
192	0x3e3aee78	0.18255031
193	0x3cacd4b4	0.021097519
194	0x3e416d4c	0.1888935
195	0xbe3fe411	-0.18739344
196	0x3c874baa	0.016515572
197	0xbde09340	-0.10965586
198	0x3d647e76	0.055784665
199	0x37d585ad	2.5453826e-05
200	0xbdc6933b	-0.09696051
201	0x3d852622	0.06501414
202	0xbe203c70	-0.15648055
203	0x3e10be16	0.14135012
204	0xbcbe0d79	-0.023199784
205	0xbe380c79	-0.17973508
206	0x3d653216	0.05595597
207	0xbdfbe8dc	-0.12300274
208	0xbe2b417b	-0.16724198
209	0x3d62a542	0.055333383
210	0x3ce145fa	0.027499188
211	0x3dc9fccc	0.0986267
212	0x3a3f781a	0.00073039683
213	0xbd1035ed	-0.035207678
214	0x3d6d996c	0.058007643
215	0x3e01d326	0.12678203
216	0x3d7df687	0.062002685
217	0x3de4cd0c	0.11171922
218	0x3e3da74d	0.18520851
219	0x3e332a35	0.1749657
220	0xbd807e29	-0.06274063
221	0x3ddf55bf	0.10905027
222	0x3e1e3392	0.1544936
223	0xbd45c38b	-0.048282187
224	0xbd03fc5f	-0.0322231
225	0xbddb31d9	-0.10702867
226	0x3dff7797	0.12473982
227	0x3e3d878c	0.18508738
228	0x3d1ebf7b	0.03875683
229	0x3e32f64a	0.17476764
230	0x3d2c48b6	0.04206153
231	0xbcead7c6	-0.028667342
232	0xbd3da18b	-0.046296638
233	0x3e172d67	0.14763413
234	0xbc620102	-0.013794186
235	0xbb8048a8	-0.0039149113
236	0x3e436a21	0.19083454
237	0xbdd3a7e6	-0.103347585
238	0xbdfe2cf0	-0.12410915
239	0x3ddd4e0a	0.108059004
240	0x3e141594	0.14461356
241	0xbd8f1761	-0.06986881
242	0x3d808ddd	0.06277058
243	0xbcdf90d3	-0.027290737
244	0x3d23a0a6	0.03994813
245	0x3ddd1883	0.10795691
246	0x3d7c6b66	0.06162586
247	0xbde1b49b	-0.11020776
248	0x3da60c55	0.08107821
249	0xbd81fe24	-0.063473016
250	0x3d1a379a	0.037650682
251	0xbdb955be	-0.09049557
252	0xbe2ee89d	-0.17080922
253	0x3db15a35	0.08659784
254	0x3d02dcca	0.031948842
255	0x3ca21805	0.019786844

patch_embed.bias f4 [128]
0	0xbcbb5422	-0.022867266
1	0x3e0ce09c	0.13757557
2	0x3e3a283e	0.18179414
3	0xbd01eaa3	-0.031717908
4	0x3e0def16	0.13860735
5	0x3e05ed68	0.13078845
6	0x3d9247e6	0.0714262
7	0x3d917364	0.07102087
8	0x3e37a758	0.1793493
9	0xbd928e6e	-0.071560726
10	0x3dce5b8a	0.100760534
11	0x3deacc91	0.11464799
12	0xbdec0a2e	-0.11525379
13	0x3dc86844	0.09785512
14	0xbd80d0bd	-0.06289814
15	0xbe07cb4e	-0.13261148
16	0xbe1a0f03	-0.15044789
17	0x3ceede65	0.02915878
18	0x3d845319	0.06461162
19	0x3ce2ecc5	0.027700791
20	0x3e147189	0.14496435
21	0x3dbfefbe	0.09371899
22	0xbe1aafa9	-0.15106072
23	0xbd4559a8	-0.048181206
24	0x3d04a96f	0.032388147
25	0xbe1681a9	-0.14697899
26	0x3d142bfd	0.036174763
27	0x3992f4d5	0.00028029704
28	0xbde00a3a	-0.109394506
29	0xbd71e23e	-0.059053652
30	0x3e0d17d0	0.13778615
31	0x3e13ad4c	0.14421576
32	0xbd64ddd0	-0.0558756
33	0x3d1a3598	0.037648767
34	0xbe0e52d4	-0.13898784
35	0xbdc5e1c7	-0.09662204
36	0x3e121a4d	0.14267845
37	0x3e0cfd9d	0.13768621
38	0x3d0b1281	0.033953194
39	0xbdd17883	-0.10228064
40	0xbe2d158c	-0.1690275
41	0x3ddb8b56	0.107199356
42	0x3cc02e08	0.02345945
43	0xbc6182a2	-0.013764055
44	0x3e2d5b46	0.1692935
45	0x3d6cd23d	0.057817686
46	0xbdc84a9a	-0.09779854
47	0x3e38cc5c	0.18046707
48	0xbd01913b	-0.031632643
49	0xbe3a64dc	-0.18202537
50	0xbe1c97ff	-0.15292357
51	0x3d0206cb	0.03174476
52	0xbd5d8d06	-0.05408957
53	0x3e2f4b5a	0.17118588
54	0x3d9e0980	0.07716656
55	0x3b9b3f30	0.004737757
56	0x3e395709	0.18099608
57	0x3d102fd5	0.035201866
58	0x3dd8b5b9	0.10581536
59	0xbda79352	-0.08182396
60	0xbd2984b3	-0.041386317
61	0xbd987919	-0.074449725
62	0xbda819fb	-0.082080804
63	0xbdaa6830	-0.083206534
64	0xbdfaec04	-0.12252048
65	0xbda67904	-0.08128551
66	0x3d861a4f	0.06547987
67	0x3e3d51ad	0.18488188
68	0x3dd50468	0.10401231
69	0x3bc630d2	0.0060483003
70	0x3e2f628f	0.17127441
71	0xbbde79da	-0.006789428
72	0x3db12bc5	0.086509265
73	0xbc146d5f	-0.009059279
74	0x3d292e1b	0.041303735
75	0x3e158a06	0.14603433
76	0xbe1040dc	-0.14087242
77	0x3d5d5dff	0.05404472
78	0xbce4bc09	-0.027921693
79	0xbdba0066	-0.09082107
80	0x3dd7163e	0.10502289
81	0xbd0bb1ee	-0.034105234
82	0x3daea2f9	0.08527178
83	0xbe4fcb54	-0.20292407
84	0xbe415a92	-0.18882206
85	0xbcb4d0c3	-0.022072202
86	0xbdc747e4	-0.09730509
87	0x3dc8622f	0.09784352
88	0xbde23ad8	-0.1104638
89	0xbe4caa85	-0.19986923
90	0x3da85614	0.08219543
91	0x3e2f777a	0.1713542
92	0xbdca2991	-0.098712094
93	0x3dc4c272	0.096074
94	0xbda98b10	-0.08278477
95	0xbe247405	-0.16059883
96	0x3da892b6	0.08231108
97	0xbdee0ca1	-0.116235025
98	0xbcc274ac	-0.023737274
99	0x3dc9b8f2	0.09849729
100	0x3cf2f1ef	0.029656379
101	0x3c32d4b5	0.010914971
102	0xbd70db68	-0.058802992
103	0xbe28f762	-0.16500619
104	0x3d9c5705	0.07633785
105	0xbda097b1	-0.07841433
106	0x3ce37a9e	0.02776843
107	0x3dd8990c	0.105760664
108	0x3cbfc43a	0.023408998
109	0xbe3ec278	-0.18628871
110	0xbddadc3c	-0.106865376
111	0x3d0b57e2	0.03401936
112	0xbe2b49d8	-0.16727388
113	0x3cfb3ecd	0.030669594
114	0x3c99fdbe	0.018797752
115	0xbe4648fa	-0.19363776
116	0x3e1916e3	0.14950137
117	0xbdfdad9f	-0.12386631
118	0x3df57387	0.11984926
119	0x3d80ddb8	0.062922895
120	0xbe1d30c2	-0.15350631
121	0x3e2307c0	0.15920925
122	0xbe3bdc24	-0.18345696
123	0xba01938f	-0.00049429474
124	0xbd63466f	-0.055487093
125	0xbc47b102	-0.012188198
126	0xbe009df5	-0.12560256
127	0x3d9d1df8	0.07671732

transformer.layers.0.self_attn.in_proj_weight f4 [384, 128]
0	0x3d9fd2e0	0.07803893
1	0x3deda7c8	0.11604267
2	0xbc5f613c	-0.013634022
3	0xbdd1920e	-0.10232936
4	0x3da29370	0.07938278
5	0xbd326d2c	-0.043561146
6	0xbda50a01	-0.08058549
7	0xbdfe4933	-0.124163054
8	0x3da86f3e	0.08224343
9	0x3c96e33c	0.0184189
10	0xbdbdc788	-0.09266573
11	0x3d8d68d6	0.069047615
12	0x3c5da223	0.013527426
13	0xbd864ebf	-0.065579884
14	0xbc92d39d	-0.01792317
15	0xbd4689ca	-0.04847125
16	0x3da8d264	0.08243254
17	0xbceb52fa	-0.02872609
18	0x3dbb648a	0.09150036
19	0x3dcd69a5	0.10029916
20	0x3dc47e94	0.09594455
21	0xbd9e33b2	-0.07724704
22	0xbd302951	-0.043008152
23	0x3dbf4a12	0.093403
24	0x3d8013ef	0.06253802
25	0xbdf1d053	-0.11807313
26	0x3d590273	0.05298085
27	0xbc08541d	-0.008320835
28	0xbbf06476	-0.0073361946
29	0xbd6b0df2	-0.057386346
30	0x3da091ce	0.0784031
31	0xbc110be6	-0.008852934
32	0xbdaf04ea	-0.08545859
33	0xbcf88e1c	-0.0303412
34	0xbc12c5d1	-0.008958296
35	0x3c9cb3ad	0.019128645
36	0x3d0734fd	0.033009518
37	0x3da6f273	0.08151712
38	0x3db75fea	0.08953841
39	0xbddf0df3	-0.108913325
40	0x3d37bd6e	0.04485839
41	0x3dc6b386	0.0970221
42	0x3cae2e25	0.021262238
43	0xbc0242ec	-0.007950526
44	0xbdcc0d4a	-0.09963472
45	0xbda1d0b3	-0.07901134
46	0xbdabf151	-0.08395637
47	0xbd9bd823	-0.07609584
48	0xbda7335a	-0.081640914
49	0x3a2e65b9	0.0006652731
50	0xbd032ffc	-0.032028183
51	0xbdd3789b	-0.10325738
52	0x3ddb8408	0.10718542
53	0xbde1a4de	-0.11017774
54	0x3b066171	0.0020504857
55	0x3d7f58de	0.06234061
56	0xbd94f0d1	-0.072724946
57	0x3ded0163	0.1157253
58	0xbd7fb97f	-0.062432762
59	0xbd237a39	-0.039911482
60	0xbd88a239	-0.066715665
61	0xbcd46974	-0.02592919
62	0x3dd26a71	0.10274208
63	0xbd966dc5	-0.073451556
64	0xbde86d6e	-0.11348997
65	0x3d90180d	0.07035837
66	0x3d11c206	0.035585426
67	0xbcd011a6	-0.02539904
68	0x3dccde22	0.10003306
69	0xbddc6dde	-0.10763143
70	0x3c5f2061	0.01361856
71	0xbde3dae3	-0.11125734
72	0x3c87f0bc	0.016594283
73	0x3d3fa009	0.04678348
74	0x3d4290ac	0.04750125
75	0xbd173a93	-0.036921095
76	0x3d836c14	0.06417099
77	0xbd778053	-0.060425114
78	0x3ba7b5d9	0.0051181135
79	0x3d846d3e	0.06466149
80	0xbd9f6773	-0.07783403
81	0xbd805a61	-0.062672384
82	0x3de71e77	0.112851076
83	0x3c68b65a	0.014203632
84	0xbde3e55f	-0.111277334
85	0xbd1f820d	-0.038942385
86	0xbd812b21	-0.06307054
87	0x3c055cb9	0.008139783
88	0x3d364c3e	0.044506304
89	0xbdb084dd	-0.08619092
90	0x3ce55783	0.02799583
91	0x3c99d9ac	0.018780552
92	0x3dc80578	0.09766668
93	0x3dcccaf2	0.09999646
94	0xbda98525	-0.082773484
95	0xbd364270	-0.044496953
96	0xbd9c50ff	-0.07632636
97	0xbdb373d3	-0.08762326
98	0xbcecbe5b	-0.028899362
99	0xbd08c1b5	-0.03338786
100	0xbd027b26	-0.031855725
101	0x3de6b501	0.112649925
102	0x3d2d8e9a	0.042372324
103	0x3d3732d1	0.044726197
104	0x3dd477d8	0.10374421
105	0xbc87bc35	-0.016569236
106	0x3d4484bc	0.047978148
107	0xbd797954	-0.060906723
108	0x3db6a478	0.08918089
109	0x3c8f39ba	0.01748358
110	0x3af45ac4	0.0018642773
111	0x3d590a96	0.05298861
112	0xbd67f396	-0.056628786
113	0x3d3f9d1f	0.0467807
114	0xba1b5e12	-0.00059267983
115	0x3ccfa46e	0.02534696
116	0x3de3cc82	0.11122991
117	0xbdcaa61e	-0.098949656
118	0xbb830204	-0.003998043
119	0xbd06d4ae	-0.03291767
120	0xbdb3fad4	-0.08788076
121	0xbd870996	-0.06593625
122	0xbcf7b70d	-0.030238653
123	0xbd950edb	-0.07278224
124	0x3d054349	0.03253487
125	0xbcc5f836	-0.024166208
126	0x3d8168dd	0.06318829
127	0xbced6155	-0.028977076
128	0x3de404e9	0.11133749
129	0x3dd73bff	0.1050949
130	0x3d3acfb5	0.04560824
131	0x3d0b8d9e	0.034070604
132	0xbdbe60c2	-0.09295799
133	0xbcaa9b42	-0.020825986
134	0x3b10d216	0.0022097877
135	0xbda2addc	-0.07943317
136	0x3d2fdfdb	0.042938095
137	0xbd9f4a21	-0.07777811
138	0x3d7c0e15	0.061536867
139	0x3dbe8632	0.093029395
140	0x3d18a821	0.037269715
141	0xbb6a468e	-0.003574762
142	0x3d88f3a7	0.06687098
143	0x3d88a533	0.06672134
144	0xbdca963d	-0.09891937
145	0x3daecd70	0.08535278
146	0x3d66951e	0.056294553
147	0xbd7963e0	-0.060886264
148	0xbb916f76	-0.004438336
149	0x3d830951	0.06398261
150	0x3d507571	0.05089325
151	0x3c10f6c4	0.008847896
152	0x3dda9a17	0.106739216
153	0x3d4aa3ce	0.049472623
154	0xbd023746	-0.031790994
155	0xbda2fc6c	-0.07958302
156	0x3d05adeb	0.032636564
157	0x3dc3dba1	0.09563375
158	0x3c4104b5	0.011780907
159	0xbba582e8	-0.0050510056
160	0x3db5859b	0.08863374
161	0xbcebd731	-0.028789135
162	0x3c65e8f6	0.014032593
163	0xbd96cf98	-0.07363814
164	0xbda5407d	-0.08068941
165	0x3c1a5c30	0.009421393
166	0x3c815695	0.015788356
167	0xbc382d2c	-0.011241239
168	0xbd9bd824	-0.07609585
169	0x3a9e694f	0.0012085828
170	0xbcca0754	-0.024661697
171	0xbd54f087	-0.051987197
172	0xbd52d52e	-0.051472835
173	0x3c68dc89	0.014212736
174	0x3d96140f	0.073280446
175	0xbd5e5ff1	-0.054290716
176	0xbd880bbd	-0.06642864
177	0x3c390bbf	0.011294304
178	0xbd960310	-0.07324803
179	0x3dcd28e3	0.10017564
180	0x3cecc4f9	0.028902518
181	0x3c8ac2cc	0.01693859
182	0x3cfb0212	0.030640636
183	0xbd49c5ed	-0.049261022
184	0x3dae2ae5	0.08504275
185	0xbda8edb1	-0.08248461
186	0x3cd936bd	0.026515359
187	0xbd8ae5e4	-0.067821294
188	0xbda37643	-0.07981541
189	0x3da9ef77	0.082976274
190	0x3da02875	0.078202166
191	0xbd9f7e03	-0.07787707
192	0x3c48cba6	0.012255585
193	0xbdb26e7c	-0.087124795
194	0x3d409c82	0.047024257
195	0xbdb099d3	-0.0862309
196	0x3c06c961	0.008226723
197	0xbd7d0bd5	-0.061778862
198	0x3c935da5	0.01798899
199	0xbc0f08cf	-0.0087301275
200	0xbcd4da67	-0.025983049
201	0xbd3d3ae6	-0.046198748
202	0xbdcbb391	-0.09946359
203	0xbd91664b	-0.07099589
204	0xbcdfd690	-0.027323991
205	0x3db36f87	0.087615065
206	0x3d84f99d	0.064929225
207	0x3d7b4f10	0.061354697
208	0xbd11a3dc	-0.03555666
209	0x3d60828f	0.05481201
210	0x3d73b7d6	0.05950149
211	0xbdc86be1	-0.09786201
212	0x3d496ace	0.049174123
213	0x3dbdb2a8	0.092625916
214	0x3cf12234	0.029435255
215	0x3bf9b717	0.007620703
216	0x3d57a720	0.052649617
217	0x3d4ec53e	0.050481074
218	0x3d8eb58c	0.06968221
219	0xbdbb9bfe	-0.091606125
220	0x3d7bc91c	0.06147109
221	0x3ddb0329	0.10693962
222	0x3d9b94e4	0.07596758
223	0x3cd3e320	0.025865138
224	0x3dbad249	0.0912214
225	0xbd21a5e2	-0.03946484
226	0xbad411b1	-0.0016179589
227	0xbda04596	-0.078257725
228	0xbdda176e	-0.10649
229	0xbd979316	-0.07401101
230	0x3d476355	0.048678715
231	0x3c916f81	0.017753365
232	0x3d15c8e3	0.036568534
233	0xbd4c0eaa	-0.049818672
234	0xbcacd736	-0.021098714
235	0x3d5f3fc4	0.05450417
236	0x3c0522ad	0.008125943
237	0xbdff296b	-0.12459072
238	0x3da4f757	0.08054989
239	0xbb9d02ba	-0.004791585
240	0xbdd57061	-0.10421825
241	0xbdb67254	-0.08908525
242	0xbd191449	-0.03737286
243	0xbcb82cf5	-0.022482375
244	0x3de2c97d	0.11073587
245	0x3d0ee862	0.034889586
246	0xbd27a31e	-0.040927045
247	0xbdd62f53	-0.10458245
248	0x3d90d384	0.070715934
249	0x3cd2e640	0.025744557
250	0xbbc36f8a	-0.005964224
251	0x3d02734a	0.03184823
252	0x3d02a19e	0.03189241
253	0x3d822a8a	0.0635577
254	0x3d635312	0.055499144
255	0x3cfc6f32	0.03081474

transformer.layers.0.self_attn.in_proj_bias f4 [384]
0	0xbb013d0c	-0.0019720225
1	0xbbd59a9e	-0.006518676
2	0xbb95bf53	-0.0045699268
3	0x3baa85c2	0.0052039335
4	0x3becb5a4	0.0072238017
5	0x3b838e4b	0.0040147654
6	0xbb8d3e8d	-0.004310435
7	0x3bc8139f	0.0061058546
8	0x3b6b2ed8	0.0035886075
9	0xbb0bcf33	-0.0021333217
10	0x3bb19d1a	0.0054203393
11	0xbb35f9b1	-0.0027767236
12	0xbbaf8eac	-0.005357584
13	0x3aacb50e	0.0013176517
14	0xbbb137f7	-0.005408283
15	0xbaa29ad1	-0.0012405758
16	0xbb986cf1	-0.0046516587
17	0xbbf18b00	-0.0073713064
18	0xbb1c7c70	-0.0023877881
19	0xbba9273f	-0.005162149
20	0xbaf0ba8c	-0.0018366142
21	0x3a95b541	0.0011421816
22	0xbaf5620f	-0.001872124
23	0x3bdae59f	0.006680205
24	0xbbb72584	-0.005589189
25	0xbb07d74b	-0.002072769
26	0x3bc6eed4	0.006070951
27	0x3b9e885e	0.0048380336
28	0x3b3963fa	0.002828835
29	0xba2dda44	-0.00066319504
30	0xbbda192d	-0.006655833
31	0xbb3cb74b	-0.0028795775
32	0x3bd9bb0d	0.0066446126
33	0x3b829c2f	0.0039859037
34	0x3b6deb34	0.0036303522
35	0xbb5b3185	-0.0033446264
36	0xb9e5d4e7	-0.00043836908
37	0x3b66329f	0.0035125387
38	0xbbedfab2	-0.007262551
39	0x3bfe3258	0.0077574663
40	0x3bb31fd4	0.0054664407
41	0x3c2e5d01	0.010642291
42	0xba0fae91	-0.00054810295
43	0xbbbaddfb	-0.0057027317
44	0x3b92c95d	0.004479571
45	0xbb4cbe2e	-0.0031241286
46	0xbb7b5652	-0.0038351011
47	0xbad08eb1	-0.0015911666
48	0xbb41a3bc	-0.0029547056
49	0x3c016805	0.007898335
50	0x3bd151bd	0.006387918
51	0x3910368f	0.00013753235
52	0xbb0fbd80	-0.002193302
53	0xbb79f6b7	-0.0038141438
54	0x3ad14ed5	0.0015968928
55	0x3baf1935	0.005343581
56	0xbbb285ef	-0.005448095
57	0x3bb95b60	0.0056566447
58	0x3b151149	0.0022745898
59	0x3b5c7f66	0.0033645271
60	0xbbe53b9d	-0.006995632
61	0xbb8bab5b	-0.0042623705
62	0x3b72cbf7	0.0037047842
63	0x3bc5151f	0.0060144807
64	0xbbd2d87f	-0.0064344998
65	0xbb90dc2c	-0.004420778
66	0x3b4e2836	0.0031457073
67	0xb9834920	-0.0002504075
68	0xbbacb756	-0.005270879
69	0xbb909c97	-0.004413198
70	0x3a878f5b	0.0010342406
71	0x3b5160d9	0.0031948595
72	0x3b345cd1	0.0027521143
73	0xbb4b709f	-0.003104247
74	0xbb388b1f	-0.0028159095
75	0xbb43a0a0	-0.0029850379
76	0x395b15d7	0.00020893604
77	0xbb8d6de1	-0.004316077
78	0xbb9c83f0	-0.0047764704
79	0xba2823c4	-0.0006414021
80	0x382f50c6	4.1798477e-05
81	0xba0921e4	-0.00052311854
82	0x3b527b8f	0.0032117104
83	0xbbd89469	-0.0066094887
84	0x3bcf3e60	0.0063245744
85	0xbbcb32b6	-0.0062011136
86	0x3bc77600	0.0060870647
87	0xbbbdaa26	-0.0057881055
88	0xbba7346e	-0.0051026857
89	0xbc0e01b9	-0.008667403
90	0xbbe3e53c	-0.006954817
91	0x3b590914	0.0033116983
92	0xbb1f2b96	-0.0024287454
93	0x3bf13f43	0.0073622777
94	0x3c09d569	0.008412697
95	0x39e21405	0.00043120995
96	0xbb664f45	-0.0035142463
97	0x3b2ebf42	0.0026664292
98	0xbb18ee65	-0.0023335454
99	0x3aeff1a8	0.0018306272
100	0xbbcd8f89	-0.0062732142
101	0xbb2edbc3	-0.002668128
102	0x3b980863	0.0046396716
103	0xbb5caf3a	-0.003367378
104	0x3ad9c2d6	0.0016613852
105	0x3bcf3d2d	0.0063244314
106	0xbc56fa50	-0.013121203
107	0x39f40879	0.0004654562
108	0xbb84b65f	-0.0040500606
109	0xbb454c22	-0.0030105193
110	0xbc0324f8	-0.0080044195
111	0xbad15617	-0.0015971091
112	0x3bdee378	0.0068020187
113	0x3befd0a2	0.007318572
114	0x3b3af514	0.0028527426
115	0x3b1d1083	0.002396614
116	0xbb8f0569	-0.0043646586
117	0x3aa9f2a4	0.0012965989
118	0x3b18cdf8	0.0023316126
119	0x3b8cc53e	0.004295974
120	0x3b83fa40	0.004027635
121	0xbaf5db54	-0.0018757381
122	0x3b23bfc8	0.0024986137
123	0x3bf2c534	0.0074087624
124	0xbba873ea	-0.005140771
125	0x3b102de8	0.0022000019
126	0xbb4ad715	-0.0030950953
127	0x3a12096a	0.0005570861
128	0x3caf22d4	0.021378912
129	0x3b7ce92a	0.0038591125
130	0xbccb3072	-0.024803374
131	0xbbfbf335	-0.0076889046
132	0xbca0f125	-0.019646237
133	0x3c162e30	0.009166285
134	0xbc76c9da	-0.015062774
135	0xbc9bbb1e	-0.019010123
136	0x3c9665dd	0.01835912
137	0x3ca1c531	0.019747349
138	0xbcd30c0c	-0.02576258
139	0x3c8f8b93	0.017522609
140	0x3cab81f2	0.020935986
141	0xbcc72502	-0.024309639
142	0x3be2edaf	0.0069253067
143	0x3c3184e1	0.010834903
144	0x3ce7f666	0.028315734
145	0xbbcf6ff6	-0.0063304855
146	0x3caa9b2d	0.020825947
147	0xbc3e1f5f	-0.011604159
148	0x3c88307c	0.016624682
149	0x3c85b6b5	0.016322473
150	0x3c5835d6	0.013196429
151	0xbc81194e	-0.015759137
152	0x3c27ebfd	0.010249135
153	0x3c710915	0.014711638
154	0x3c0260df	0.007957666
155	0x3c9157b1	0.01774201
156	0xbc3f70f7	-0.011684648
157	0x3cb7085a	0.02234285
158	0xbc721b93	-0.014777082
159	0x3c469e73	0.012122738
160	0xbc247992	-0.01003875
161	0xbcdb2f57	-0.026755972
162	0xbd0efb14	-0.034907416
163	0xbc61ad74	-0.013774265
164	0x3cf5f597	0.030024333
165	0xbc58e5f9	-0.0132384235
166	0x3d07d211	0.03315932
167	0x3c8c4368	0.017121986
168	0x3c046fda	0.008083308
169	0x3cd8d13d	0.02646696
170	0xbcbcccb7	-0.023046834
171	0xbcc5e073	-0.024154877
172	0xbd1b0a9c	-0.037851915
173	0x3af0c48a	0.001836912
174	0xbd10af2c	-0.035323307
175	0xbb893cd0	-0.0041881576
176	0xbba82a5a	-0.005132002
177	0x3c12c15b	0.008957232
178	0xbce030ad	-0.02736696
179	0x3c339504	0.010960821
180	0x3ce4fa76	0.02795146
181	0xbc204f87	-0.009784586
182	0x3cf54b4d	0.029943133
183	0xbc93dbaf	-0.01804909
184	0x3d07cfc9	0.033157144
185	0xbc0213c9	-0.007939287
186	0x3d1133c2	0.03544975
187	0x3cebc3bc	0.028779857
188	0x3cbe1b53	0.023206389
189	0x3cd308dd	0.025761062
190	0xbd12a66a	-0.035803236
191	0x3ce7fa79	0.028317677
192	0xbc24fbce	-0.010069801
193	0x3bd47ce5	0.006484615
194	0xbb8e27fe	-0.0043382635
195	0xbc35f1d2	-0.011105018
196	0x3ba4e314	0.0050319526
197	0xbc27dd67	-0.0102456575
198	0x3c011bd6	0.007880172
199	0x3c1515e8	0.009099461
200	0x3c37634c	0.011193108
201	0xbb2cfb77	-0.0026395002
202	0xbc228ec3	-0.009921732
203	0x3b949e21	0.004535452
204	0xbc629a1d	-0.013830689
205	0x3acc0481	0.0015565307
206	0xbc56ffb1	-0.013122485
207	0xbb40333d	-0.0029327415
208	0xbc351097	-0.011051319
209	0xbbc74a44	-0.006081851
210	0xbc13ac28	-0.009013213
211	0x3a39d6c8	0.0007089195
212	0x3ae73aba	0.0017641403
213	0x3a25e19d	0.00063278695
214	0x3bae4ac9	0.0053189737
215	0x3c0ac070	0.008468732
216	0xba0c9a78	-0.0005363594
217	0x3b17ae69	0.0023144728
218	0xba081e0e	-0.0005192467
219	0xbbae79a7	-0.0053245607
220	0xbb06acb9	-0.0020549728
221	0x3bff1747	0.0077847573
222	0x3bf3b431	0.007437252
223	0x3bbca1fd	0.005756615
224	0xbc346528	-0.011010446
225	0xba3d94f3	-0.0007231973
226	0x3b99f628	0.0046985336
227	0xbcaf3a8f	-0.021390228
228	0xbb984ae3	-0.004647599
229	0xbc1060fa	-0.0088121835
230	0x3c89325e	0.01674765
231	0xbc35cbf6	-0.011095991
232	0xbc56976a	-0.013097623
233	0x3ba2a5c1	0.004963607
234	0x3c48e4aa	0.012261549
235	0xbbb5dafd	-0.005549787
236	0x3c468cf6	0.012118569
237	0xbb996121	-0.004680768
238	0x3c4537fa	0.012037272
239	0x3c97f757	0.018550558
240	0x3c5a827a	0.013336772
241	0xbc91ef73	-0.017814374
242	0x3c9caa95	0.019124309
243	0x3c845abb	0.016156545
244	0xbc49c510	-0.01231505
245	0x3c9311b5	0.01795278
246	0xbba32046	-0.0049782125
247	0x3c460b2e	0.012087626
248	0x3a249d87	0.0006279577
249	0xbba5a868	-0.005055476
250	0xbb843518	-0.0040346496
251	0xbc7d937c	-0.015477058
252	0xbbd66543	-0.006542833
253	0x3c84e452	0.016222153
254	0xbb4d62f7	-0.0031339505
255	0x3c9585c7	0.018252267

transformer.layers.0.self_attn.out_proj.weight f4 [128, 128]
0	0x3d3081db	0.04309259
1	0x3c747c02	0.014922144
2	0xbd43b60e	-0.047781043
3	0xbd9da86e	-0.07698141
4	0xbd8a218b	-0.06744679
5	0xbc0aa184	-0.00846136
6	0xba1296b3	-0.0005591914
7	0xbc7d8766	-0.015474176
8	0xbd139102	-0.036026962
9	0x3dade15f	0.08490252
10	0xbd61f210	-0.05516249
11	0x3d0df7c3	0.034660112
12	0xbc71cdb3	-0.014758515
13	0xbdb2c90a	-0.087297514
14	0x3d7bb759	0.06145415
15	0xbd423829	-0.04741684
16	0x3d9ea8cb	0.077470385
17	0x3d0c42f1	0.034243528
18	0xbd429fe4	-0.047515765
19	0xbc95e5da	-0.018298078
20	0xbd3938e5	-0.045220274
21	0xbda34184	-0.079714805
22	0x3ccb6c92	0.024832044
23	0x3d8092d4	0.06278005
24	0x3d3bb469	0.04582635
25	0x3cadf656	0.021235626
26	0x3da06601	0.07831956
27	0xbcf70cdf	-0.030157505
28	0xbc1ed958	-0.0096953735
29	0xbcc3f53d	-0.02392065
30	0xbda48267	-0.08032685
31	0x3d6155d8	0.055013508
32	0xbd98b0a6	-0.07455568
33	0x3da35794	0.079756886
34	0xbc3eca5c	-0.011644926
35	0x3d82c20f	0.0638467
36	0xbdc51822	-0.096237436
37	0x3d8ed1ec	0.06973633
38	0xbd2e2beb	-0.042522352
39	0x3ce69aa2	0.028149907
40	0xbd257ac1	-0.04040027
41	0xbd8b0063	-0.06787183
42	0x3d533d1f	0.05157196
43	0xbd48f7b8	-0.049064368
44	0xbd80257b	-0.06257149
45	0xbd8c397c	-0.06846902
46	0xbd8bff72	-0.06835832
47	0x3c8c322d	0.01711377
48	0x3d87a5c7	0.066234164
49	0xbd6c5c01	-0.05770493
50	0x3d7d6839	0.061866973
51	0xbc590560	-0.01324591
52	0xbd7d6a7d	-0.061869133
53	0x3d98463c	0.07435271
54	0xbd11ffd3	-0.035644364
55	0x3c149c88	0.009070523
56	0x3d5908c3	0.05298687
57	0xbd5aa744	-0.053382173
58	0x3cd9a7df	0.026569305
59	0x3b8d630f	0.004314787
60	0xbd9f08ff	-0.07765388
61	0x3cc27267	0.023736192
62	0x3c8ef68b	0.017451545
63	0xbdc0b1db	-0.09408923
64	0x3d8d9409	0.06913001
65	0x3db4253a	0.08796163
66	0x3d69b4f2	0.05705733
67	0xbce41b4b	-0.027845046
68	0x3d5308a0	0.051521897
69	0xbd66dcf7	-0.056363072
70	0xbd8ecccb	-0.06972655
71	0x3d0b8b2c	0.03406827
72	0xbc8b8f91	-0.017036231
73	0xbc31810c	-0.01083399
74	0xbd619484	-0.055073276
75	0x3b21fe01	0.0024718049
76	0xbc82a38a	-0.015947122
77	0xbd94faa9	-0.07274372
78	0xbd9b837d	-0.07593439
79	0x3d83f00e	0.06442271
80	0xbd9883f1	-0.07447041
81	0x3ca22653	0.019793665
82	0xbca87cd3	-0.020567333
83	0x3d886796	0.066603824
84	0xbd248eb4	-0.040175155
85	0x3d7aa6bc	0.061194167
86	0x3d02cd37	0.03193399
87	0x3bc3dfdf	0.0059776152
88	0x3d9453b0	0.072425246
89	0x3da1f5e6	0.079082295
90	0x3d0b5430	0.034015834
91	0xbbf90d3c	-0.0076004546
92	0xbdbdff11	-0.09277166
93	0xbd7187ac	-0.058967277
94	0xbcb2a249	-0.0218059
95	0x3d8c76ae	0.06858574
96	0xbd119c16	-0.035549246
97	0x3d48f185	0.049058456
98	0xbcfbe68d	-0.030749584
99	0xbd2b1759	-0.041770313
100	0x3d32785c	0.043571815
101	0x3b3f7a82	0.0029217307
102	0x3da34c81	0.07973576
103	0xbd91752d	-0.07102428
104	0xbca6e85a	-0.020374466
105	0x3cbfc942	0.023411397
106	0xbb990705	-0.0046700262
107	0x3cd98505	0.026552686
108	0x3d740dc6	0.059583448
109	0xbd0851f4	-0.03328128
110	0xbc83d9f4	-0.01609514
111	0x3db371aa	0.08761914
112	0x3cbe014e	0.023193981
113	0x3da0a539	0.07844014
114	0xbd90aa64	-0.070637494
115	0x3d89bff6	0.06726067
116	0xbca15f37	-0.019698722
117	0xbb248dee	-0.002510901
118	0xbd9e29b3	-0.07722797
119	0xbcf8e2ed	-0.030381644
120	0x3ca2ebbf	0.019887803
121	0xbd4edb6a	-0.05050222
122	0x3db957ed	0.09049974
123	0x3d696b6c	0.05698721
124	0x3c3836c3	0.011243525
125	0xbd5dfb71	-0.05419487
126	0xbd78f31a	-0.060778715
127	0x3cef2aa1	0.029195132
128	0x3d7542a1	0.059877995
129	0x3d072773	0.032996606
130	0xbd9659d9	-0.07341356
131	0xbd92d257	-0.071690254
132	0x3bd6178d	0.006533569
133	0x3d97541b	0.07389089
134	0xbcffdcb3	-0.031233167
135	0xbd17e321	-0.03708184
136	0x3d9b64c5	0.0758758
137	0x3d335184	0.04377891
138	0x3c68d9d2	0.014212089
139	0x3d28eef2	0.0412435
140	0x3d590b00	0.052989006
141	0xbcafc833	-0.021457767
142	0x3d7b516b	0.061356943
143	0x3cac656f	0.021044461
144	0x3a86f4f4	0.001029639
145	0xbd6b7469	-0.057484064
146	0xbd96bb75	-0.07359973
147	0x3d059a53	0.03261788
148	0x3c94ab27	0.018148018
149	0x3d69b4e7	0.057057288
150	0xbd09d3fc	-0.03364943
151	0x3da635e5	0.08115748
152	0xbd6a9195	-0.057267744
153	0x3c76c0fa	0.015060658
154	0xbc7dbea2	-0.015487345
155	0x3d025d32	0.03182716
156	0x3bcf2f19	0.006322753
157	0x3cd0b51d	0.025476987
158	0xbd9e5351	-0.07730735
159	0xbd81ce35	-0.06338159
160	0xbd4009db	-0.0468844
161	0xbd1d5880	-0.03841448
162	0x3c8fcd48	0.01755394
163	0xbdb479a3	-0.08812263
164	0xbd8b7815	-0.06810013
165	0x3d13bb43	0.03606726
166	0x3d80b22b	0.06283983
167	0x3d9a9a3a	0.07548948
168	0xbd5b53f7	-0.053546872
169	0xbd6e4917	-0.058175173
170	0xbc855a8f	-0.016278533
171	0x3caddf2d	0.021224583
172	0x3da68cfa	0.08132358
173	0xbd94eeaa	-0.07272084
174	0xbc132abc	-0.008982357
175	0x3d977601	0.07395554
176	0xbd12e4a4	-0.03586258
177	0xbd8ad106	-0.06778149
178	0xbc7baad9	-0.0153605575
179	0xbd42bb1f	-0.047541734
180	0x3cfee704	0.031116016
181	0xbc666327	-0.014061726
182	0x3d34e284	0.044161335
183	0x3d474ac8	0.0486553
184	0xbd46d1f9	-0.04854009
185	0xbd5465a4	-0.051854745
186	0x3d95f5e4	0.073222905
187	0x3cdfb260	0.027306736
188	0xbd69ff81	-0.057128433
189	0x3ce51c47	0.027967585
190	0x3d7b66fc	0.06137751
191	0x3cc2cb31	0.02377853
192	0x3bbba79f	0.005726769
193	0xbc93b2dc	-0.018029623
194	0x3d560ae7	0.05225649
195	0xbceb9b92	-0.028760705
196	0x3d10c49c	0.03534375
197	0x3ce577e7	0.028011275
198	0x3d6a8623	0.05725683
199	0x3c804587	0.015658153
200	0xbc52a9e8	-0.012857892
201	0xbd86475c	-0.065565795
202	0x3c5d56c4	0.013509456
203	0x3d215a8c	0.039392993
204	0x3d39042b	0.04516999
205	0x3ad24602	0.0016042592
206	0xbd4d512b	-0.050126236
207	0x3da50993	0.08058467
208	0xbd42085f	-0.047371265
209	0xbd8325fe	-0.06403731
210	0x3d2860d7	0.04110798
211	0xbcb0edf6	-0.021597844
212	0xbc1c1f5c	-0.009528961
213	0xbd2bf517	-0.041981783
214	0xbd9fb64a	-0.07798441
215	0x3d94a62c	0.07258257
216	0x3da1e6ae	0.07905327
217	0x3c939277	0.018014176
218	0x3dba3df3	0.09093847
219	0xbd96f75a	-0.07371397
220	0xbd55b238	-0.052171916
221	0xbb938783	-0.0045022382
222	0x3d1fc1b6	0.039003097
223	0xbcb6d89d	-0.022320086
224	0x3d8da852	0.0691687
225	0xbd83f247	-0.06442695
226	0x3bd8d6a8	0.006617386
227	0x3da1db90	0.07903206
228	0xbbd25bf9	-0.0064196554
229	0x3da8a080	0.08233738
230	0xbdae6d8b	-0.085169874
231	0x3cac0020	0.020996153
232	0xbcedbc53	-0.029020464
233	0xbd9372a7	-0.071996026
234	0xbd496527	-0.049168732
235	0xbd11e10b	-0.03561501
236	0xbc83faab	-0.016110739
237	0xbc24f661	-0.010068507
238	0x3beb6d9f	0.0071846987
239	0x3da0a6d7	0.07844322
240	0xbbe64042	-0.007026703
241	0x3cf9d403	0.030496603
242	0x3d03982e	0.03212755
243	0xbda90c49	-0.08254296
244	0x3bd0f3b3	0.0063767075
245	0xbd8aff91	-0.06787027
246	0x3c133aad	0.008986157
247	0xbcedf80c	-0.029048942
248	0x3c892c12	0.016744647
249	0xbd7d0bb0	-0.061778724
250	0xbd47fb70	-0.048823774
251	0x3c8d0f75	0.017219285
252	0x3d34073a	0.043952204
253	0x3d0a4448	0.033756524
254	0x3c92ab7f	0.017904041
255	0xbd6b1fd5	-0.057403404

transformer.layers.0.self_attn.out_proj.bias f4 [128]
0	0x3ad678b0	0.0016362872
1	0x3b620be5	0.0034491953
2	0x3b52b399	0.0032150506
3	0x3b9a1232	0.004701876
4	0x3b39d5ea	0.0028356262
5	0x3b4d48b0	0.0031323843
6	0x3be83c9a	0.0070873024
7	0xba1bbf47	-0.00059412833
8	0xbafbcea3	-0.0019211363
9	0xb9ea4a61	-0.00044687375
10	0xbb185316	-0.0023242882
11	0x3c28d891	0.01030554
12	0xba24a5cd	-0.000628081
13	0xbaf798ad	-0.0018890105
14	0xbacff932	-0.0015867113
15	0x3b51f032	0.0032034037
16	0xbb5c31d4	-0.0033599036
17	0xbbb78300	-0.005600333
18	0x3ae30d8d	0.0017322764
19	0xb9a6fc69	-0.00031850048
20	0x39e3b1e8	0.00043429364
21	0x3be7d287	0.0070746574
22	0x3b5faa94	0.0034128772
23	0x39856076	0.00025439606
24	0xbaf9db5c	-0.0019062567
25	0xbaa41203	-0.0012517575
26	0xba81a3b6	-0.0009890709
27	0x3a9afe06	0.0011824972
28	0x3af01c2e	0.0018318945
29	0x3b487cb7	0.0030591914
30	0xbb4eb6f4	-0.0031542154
31	0x3ab53f55	0.0013828079
32	0x3acff43e	0.0015865637
33	0x3a99c893	0.0011732749
34	0xbb6136da	-0.003436497
35	0x3ab42647	0.0013744318
36	0xbc0cd6aa	-0.008596102
37	0x3ab4861d	0.0013772879
38	0xbaf1b394	-0.0018440359
39	0x3b5e0246	0.0033875867
40	0xbb6695d1	-0.0035184512
41	0x3b55bc5d	0.0032613494
42	0xbb331dc7	-0.002733098
43	0xbb572caa	-0.0032833018
44	0xbb46caae	-0.003033321
45	0x3b4cc755	0.003124674
46	0xb98adf4d	-0.00026487783
47	0x3bc8153a	0.006106046
48	0xbb30ce88	-0.002697857
49	0xba4e402f	-0.00078678405
50	0xbb1e15c4	-0.002412186
51	0xb942c510	-0.00018574693
52	0x3ac37afd	0.0014913973
53	0x3b726dfc	0.0036991825
54	0xb90e98c0	-0.00013599079
55	0xbad3f7ea	-0.0016171907
56	0x3b040c5d	0.002014897
57	0x3b994cf7	0.0046783644
58	0x3b84c97c	0.004052339
59	0xbb8c02de	-0.0042728027
60	0x3aa5252a	0.0012599577
61	0xbbfceb83	-0.007718505
62	0xba833339	-0.0010009772
63	0xb9d17c4c	-0.00039956195
64	0xbb82f1e3	-0.0039961203
65	0x3b1b844d	0.002372998
66	0x3c033253	0.008007604
67	0xba2ec22f	-0.0006666509
68	0xb973c490	-0.00023247511
69	0x3b82090f	0.003968365
70	0x399e4a3a	0.00030191411
71	0x3b2f4f69	0.0026750213
72	0x3a4960b9	0.00076819543
73	0x3b94eeb0	0.0045450553
74	0x3adb8bae	0.0016750002
75	0x3ab955b5	0.0014139923
76	0xba2df3f1	-0.00066357764
77	0x3b8ea4ac	0.0043531265
78	0x3bab76e0	0.005232677
79	0x3b2b60f7	0.0026150325
80	0xbad42d9b	-0.0016187908
81	0xbb8a2272	-0.004215532
82	0x3b0fe021	0.002195366
83	0xbabfdd3a	-0.0014638074
84	0x39b439c0	0.00034375302
85	0x3a65b091	0.0008761967
86	0x3a501fe6	0.00079393236
87	0x3a8a9149	0.0010571863
88	0xbb850c00	-0.0040602684
89	0x3a36ff4d	0.0006980792
90	0x3bb77ef7	0.005599852
91	0x3a620901	0.00086225575
92	0xbb90f90d	-0.0044242204
93	0x3b06b936	0.0020557172
94	0xb88c335a	-6.685285e-05
95	0xbbb9e5cb	-0.0056731454
96	0xbaef9ff3	-0.0018281922
97	0xbb9eb2ea	-0.0048431056
98	0xb9d04709	-0.00039725777
99	0x3b55d285	0.00326267
100	0xbb9362bd	-0.0044978545
101	0xbb457b72	-0.0030133394
102	0x3af57631	0.001872724
103	0x3adc12ca	0.0016790268
104	0x3b4ca8ff	0.003122866
105	0xbaa2337a	-0.001237496
106	0x39a6b99f	0.00031800286
107	0x3b89fcc0	0.0042110384
108	0xbafb8bc6	-0.0019191436
109	0x3bb2de75	0.005458648
110	0xbaf5f9db	-0.0018766479
111	0xba8a5077	-0.0010552545
112	0xb8d04012	-9.930147e-05
113	0x3b1ccfe0	0.0023927614
114	0xbb53a4a9	-0.003229419
115	0xba6dc5bc	-0.0009070297
116	0x3b65f72d	0.0035089955
117	0xbb8deb74	-0.0043310467
118	0x3be09eac	0.0068548527
119	0x3b39bcb9	0.0028341247
120	0xb8e62b05	-0.00010975268
121	0x3a96ff02	0.001152009
122	0xbb0d351e	-0.0021546553
123	0xbc05a49d	-0.008156923
124	0xbabeba26	-0.0014551326
125	0x3b552d4d	0.0032528222
126	0xbbc475b5	-0.005995477
127	0xbb687ac5	-0.0035473567

transformer.layers.0.linear1.weight f4 [512, 128]
0	0xbd837eca	-0.064206675
1	0x3d9eaae4	0.077474385
2	0x3d225822	0.03963483
3	0xbda1662b	-0.07880815
4	0x3c56cc1a	0.013110185
5	0x3d894708	0.06703001
6	0xbd931874	-0.071823984
7	0x3b95c0ad	0.004570088
8	0x3ca56ddc	0.020193987
9	0x3c54b397	0.012982271
10	0x3d92f296	0.07175176
11	0xbca190fe	-0.019722458
12	0xbcc7b5b8	-0.024378642
13	0x3da0d979	0.078539796
14	0xbdb4f5ff	-0.088359825
15	0xbd91f823	-0.071274064
16	0x3c1eb097	0.009685657
17	0xbd87003a	-0.0659184
18	0xbd47725a	-0.04869304
19	0xbd532e61	-0.051557902
20	0x3da66265	0.08124236
21	0x3ca7d28e	0.020486142
22	0x3d12b29e	0.035814874
23	0x3d6338bc	0.055474028
24	0x3ca6027d	0.020264858
25	0xbd1590d7	-0.036515083
26	0xbd9f3f83	-0.07775786
27	0x3bb3fe4b	0.0054929606
28	0xbd29a70b	-0.04141907
29	0xbd7de5d9	-0.061986778
30	0x3dac6614	0.08417907
31	0x3d7a951a	0.06117735
32	0xbca8be39	-0.020598518
33	0xbd49b236	-0.04924222
34	0xbd98d4a3	-0.07462432
35	0xbd0be4dc	-0.034153804
36	0x3d5b3bd1	0.053523842
37	0x3c647ad1	0.013945297
38	0x3c957571	0.018244477
39	0xbd0f9e2b	-0.03506295
40	0xbb8f88b6	-0.004380311
41	0x3d4c3da9	0.04986349
42	0x3da7e27a	0.08197494
43	0x3d24cc4f	0.040233906
44	0x3d936ace	0.07198106
45	0xbc2abe73	-0.010421383
46	0x3cb2b8a0	0.021816552
47	0xbd5742e8	-0.05255404
48	0x3d5ed2c6	0.054400228
49	0xbb1c301b	-0.0023832384
50	0x3c6fb7e6	0.014631247
51	0xbcfc1424	-0.030771323
52	0x3c91c68e	0.017794874
53	0xbbb34096	-0.0054703457
54	0xbd23ef29	-0.040023003
55	0x3db05eae	0.08611809
56	0x3d2f8ae7	0.042857077
57	0x3d2e78d3	0.042595696
58	0xbd9d151f	-0.07670044
59	0xbd2fbaf9	-0.04290292
60	0xbba79b9b	-0.005114985
61	0xbd94aaa5	-0.0725911
62	0xbda97492	-0.08274187
63	0xbd0bbc8b	-0.034115355
64	0x3d394a86	0.045237087
65	0xbc215e27	-0.009849108
66	0xbd66a030	-0.05630511
67	0x3d880a4c	0.06642589
68	0xbd7e0fb1	-0.062026683
69	0x3d8cc57d	0.068736054
70	0xbd2ee633	-0.042700004
71	0xbd3380f2	-0.043824144
72	0xbd5c7229	-0.05381981
73	0xbd218910	-0.039437354
74	0xbcec3f61	-0.028838815
75	0x3cdf5134	0.0272604
76	0xbd81ee6f	-0.06344306
77	0x3d027333	0.031848144
78	0x3db1a4ee	0.08674036
79	0xbd810f81	-0.06301785
80	0x3db628c1	0.08894492
81	0xbd1d15ca	-0.038350858
82	0x3d8c1ce3	0.06841447
83	0x3c699e4e	0.014258934
84	0x3d2ca25e	0.042147033
85	0x3d533fef	0.051574644
86	0x3ca5dbe4	0.020246454
87	0x3d084cfb	0.03327654
88	0xbd60f9d6	-0.054925762
89	0xbda16308	-0.07880217
90	0xbd06f221	-0.032945756
91	0x3d0fde9c	0.035124406
92	0x3d2bfbd6	0.041988216
93	0xbc0dcd98	-0.008654974
94	0x3cd6383f	0.026149867
95	0xbc836ad3	-0.016042149
96	0x3d05da4e	0.032678895
97	0x3d5f531a	0.05452261
98	0xbce773a7	-0.02825339
99	0xbd888d26	-0.06667547
100	0x3d529c25	0.051418442
101	0x3d4a0678	0.049322575
102	0x3cc12877	0.023578865
103	0xbd70909e	-0.058731668
104	0x3cadd980	0.021221876
105	0x3d5bd4d2	0.05366976
106	0xbd08398f	-0.033258017
107	0xbda70b22	-0.0815642
108	0x3cd4af5d	0.025962526
109	0x3cf3794b	0.029720923
110	0x3cb0ed24	0.021597452
111	0x3d8ade8a	0.06780727
112	0x3d7c67cc	0.061622426
113	0x3c190fdc	0.00934216
114	0xbd473fbb	-0.048644762
115	0xbd395e39	-0.045255873
116	0xbd255fa4	-0.040374413
117	0x3cf05e86	0.029341947
118	0xbdae993f	-0.08525323
119	0xbdc66613	-0.09687438
120	0xbc0970c5	-0.008388703
121	0xbd54adbd	-0.051923502
122	0xbd0b22b7	-0.033968654
123	0x3da19337	0.07889407
124	0x3d45c6b7	0.048285212
125	0xbc76cd32	-0.015063571
126	0xbd8af31a	-0.06784649
127	0x3d1a1d72	0.037625737
128	0x3d9e9be7	0.0774458
129	0x3bf204c5	0.0073858225
130	0x3d225b0c	0.03963761
131	0x3d4b3dc6	0.04961946
132	0x3c32ab81	0.0109051475
133	0xbd427a21	-0.047479752
134	0x3d4b0b51	0.04957134
135	0x3d745d6e	0.059659414
136	0x3d22b3cf	0.03972226
137	0xbd184d5c	-0.03718315
138	0x3c0154dc	0.007893767
139	0x3d3182d0	0.043337643
140	0xbd8a7a37	-0.06761592
141	0xbd95409e	-0.072877154
142	0x3da1f8ef	0.079088084
143	0x3cb49abc	0.02204644
144	0xbd5a1a3c	-0.053247675
145	0xbcab73ff	-0.020929335
146	0xbd708df1	-0.058729116
147	0xbd07b3f1	-0.03313059
148	0xbda38e99	-0.07986183
149	0x3d9a4093	0.07531848
150	0xbda0d057	-0.07852238
151	0x3d9fda7e	0.07805346
152	0x3d04e659	0.03244624
153	0x3d4fbe26	0.05071845
154	0x3d102726	0.035193585
155	0x3c99cbe5	0.018773982
156	0x3dac64f2	0.08417691
157	0xbd82ef29	-0.063932724
158	0x3d2ec022	0.0426637
159	0xbd155ced	-0.036465574
160	0xbc4990f8	-0.01230263
161	0xbcb49ad4	-0.022046484
162	0x3d675145	0.05647399
163	0xbbb3f003	-0.005491258
164	0x3d452b40	0.04813695
165	0x3d16a895	0.036781866
166	0xbda1fb45	-0.07909254
167	0x3c399a15	0.01132824
168	0x3d340a95	0.043955404
169	0xbda30f93	-0.07961955
170	0x3c274dd5	0.010211428
171	0xbdaa20d6	-0.08307044
172	0xbcb99172	-0.022652362
173	0x3d803ccc	0.06261596
174	0xbca48810	-0.02008441
175	0x3d916fac	0.07101378
176	0x3d63e9db	0.055642944
177	0x3cbbc882	0.022922758
178	0xbd942afa	-0.0723476
179	0x3b4997cd	0.0030760646
180	0xbd462461	-0.048374537
181	0x3da66000	0.08123779
182	0xbd70ecab	-0.058819454
183	0xbdbc4c8a	-0.09194286
184	0x3d7c6e26	0.061628483
185	0xbb8d7e5e	-0.0043180427
186	0xbd4fdd4e	-0.050748162
187	0xbd262639	-0.040563796
188	0x3c0ac1b7	0.008469037
189	0x3cc7b388	0.0243776
190	0xbd7b7cca	-0.061398305
191	0xbd42cc49	-0.047558103
192	0x3cd00d14	0.025396861
193	0xbd7bb284	-0.061449543
194	0xbd396767	-0.045264628
195	0x3cc6af36	0.024253469
196	0xbdac4d51	-0.084131844
197	0x3d4fa7c2	0.050697096
198	0x3d4c8f74	0.049941495
199	0xbd7dc69a	-0.06195698
200	0x3d8f32f3	0.0699214
201	0x3d1c03f6	0.038089715
202	0x3c30e380	0.010796428
203	0x3d518afa	0.05115793
204	0xbcb2f734	-0.021846391
205	0x3d029468	0.031879812
206	0x3d666a06	0.056253456
207	0x3d3561eb	0.044282835
208	0x3d8a892f	0.06764447
209	0xbd4f1cf0	-0.050564706
210	0xbd62cf34	-0.055373386
211	0x3da26785	0.07929901
212	0xbccd90b3	-0.025093412
213	0xbc885fff	-0.016647337
214	0x3d14fe84	0.036375538
215	0x3dc08e26	0.09402113
216	0x3d9c7490	0.0763942
217	0x3d4142c4	0.047182813
218	0x3c4d7605	0.012540345
219	0x3b51a833	0.0031991124
220	0x3d470423	0.04858793
221	0xbd6b67ac	-0.057471916
222	0xbd761ab8	-0.060084075
223	0xbd828a00	-0.06373978
224	0xbc194557	-0.009354911
225	0x3da4e2b2	0.08051051
226	0xbc84dff7	-0.016220076
227	0xbd050ef8	-0.03248498
228	0x3bcb703a	0.006208447
229	0xbd115600	-0.035482407
230	0x3d9b0005	0.07568363
231	0x3ce63926	0.028103422
232	0xbdb43c80	-0.08800602
233	0xbd22a69e	-0.03970968
234	0xbd907876	-0.07054226
235	0x3d98878c	0.074477285
236	0x3da5c80b	0.08094796
237	0xbda3c7c7	-0.07997089
238	0xbd4570b5	-0.04820319
239	0x3cffc861	0.031223478
240	0xbd91ec10	-0.071251035
241	0xbdb71a58	-0.089405715
242	0xbc3d6b6b	-0.011561255
243	0xbc87c5fe	-0.016573902
244	0x3d5c04d7	0.053715553
245	0xba0822ed	-0.00051931926
246	0x3d554a92	0.05207307
247	0xbd82aa30	-0.06380117
248	0xba1508b7	-0.00056851975
249	0xbd82a8fc	-0.063798875
250	0xbd923726	-0.07139425
251	0xbd1083c8	-0.035281926
252	0x3d4bb0a8	0.04972902
253	0x3d21265d	0.039343227
254	0xbd5053a8	-0.05086103
255	0x3c0f84bf	0.0087596765

transformer.layers.0.linear1.bias f4 [512]
0	0xbcd9ddf5	-0.026595095
1	0x3c007f2b	0.007842819
2	0x3c9985d1	0.018740566
3	0x3ca6396c	0.020291053
4	0xba10e246	-0.00055268814
5	0x3d7853b3	0.060626697
6	0xb9a89b89	-0.0003215934
7	0xbd549d33	-0.05190773
8	0xbc2bf6be	-0.01049584
9	0xbd63bf92	-0.055602618
10	0x3d06c1fa	0.032899834
11	0xbd52a26f	-0.05142444
12	0xbd7cc21d	-0.06170856
13	0xbc23fa94	-0.010008473
14	0x3d87b05d	0.066254355
15	0xbda1af63	-0.078947805
16	0xbd91a3fa	-0.07111354
17	0x3c9355d8	0.01798527
18	0x3d366070	0.044525564
19	0x3c23fbb2	0.010008739
20	0xbd657626	-0.05602088
21	0x3d87a817	0.066238575
22	0xbd9bb257	-0.07602375
23	0x3c6dfbe8	0.014525391
24	0x39ae5543	0.0003325139
25	0x3d7ee86a	0.062233366
26	0xbd647319	-0.05577383
27	0xbd90a66d	-0.07062993
28	0xbb74ec58	-0.0037372317
29	0x3cda42fc	0.026643269
30	0x3cff3fb8	0.031158313
31	0xbb6a9eb9	-0.0035800172
32	0x3b5394e4	0.003228479
33	0x3db20fec	0.08694443
34	0xbd424ce0	-0.047436595
35	0xbcb47a9d	-0.022031123
36	0x3da8d247	0.08243232
37	0xbd8f43ee	-0.069953784
38	0xbd9d9c6e	-0.07695852
39	0xbcf350c0	-0.02970159
40	0xbcdcec4d	-0.026968146
41	0xbd0f8b76	-0.03504511
42	0x3d62cf0f	0.055373248
43	0xbc3de87b	-0.011591072
44	0xbc0db548	-0.008649178
45	0xbd924fc9	-0.07144124
46	0xbd9a975c	-0.07548401
47	0x3cd6a0ae	0.026199665
48	0xbd288748	-0.04114464
49	0xbb1f0747	-0.0024265812
50	0x3d8322e8	0.06403142
51	0x3b42dd4e	0.0029733959
52	0xbc7a4c8d	-0.01527704
53	0x3cf5c11f	0.029999314
54	0x3d843e69	0.06457216
55	0xbcd88ba8	-0.02643378
56	0x3d99f528	0.07517463
57	0x3d140ee5	0.036147017
58	0xbdbf82c3	-0.09351113
59	0xbd8eddce	-0.069759
60	0xbcf50233	-0.029908275
61	0x3d91677e	0.07099818
62	0xbd8e6336	-0.06952517
63	0x3d4cc2a2	0.049990304
64	0x3d62ef6a	0.055404104
65	0xbd65b279	-0.056078408
66	0xbd227629	-0.039663468
67	0xbbf662e9	-0.007519115
68	0xbc8d9104	-0.017281063
69	0x3d129a5f	0.03579175
70	0xbd803f43	-0.06262066
71	0x3db0dd07	0.086359076
72	0x3cd5120c	0.026009582
73	0x3c1daf93	0.00962438
74	0xbd176a01	-0.036966328
75	0xbc092e9d	-0.00837293
76	0xbd6d8f2c	-0.057997867
77	0x3d58bfa6	0.052917145
78	0xbd81a550	-0.06330359
79	0xbc7053c1	-0.014668406
80	0x3910df9c	0.00013816211
81	0x3d93242e	0.07184635
82	0x3d8205f6	0.06348793
83	0xbd620970	-0.05518478
84	0x3d4c9533	0.049946975
85	0xbbe10c82	-0.006867946
86	0x3d7b4c02	0.061351784
87	0xbd09264f	-0.0334838
88	0xbd3b1039	-0.045669768
89	0xbd10fa5a	-0.035395004
90	0xba470b5e	-0.00075929414
91	0xbc7c920f	-0.015415682
92	0xbd7e624d	-0.062105466
93	0x3d838045	0.0642095
94	0xbd8c1d85	-0.06841568
95	0x3b76e838	0.0037675034
96	0x3d9c1b6a	0.07622416
97	0xbd8351c9	-0.06412084
98	0xbdb3562c	-0.0875667
99	0x3d4da83f	0.05020928
100	0xbda55360	-0.08072543
101	0xbd5866a0	-0.052832246
102	0xbd69dde7	-0.05709639
103	0xbcd36e00	-0.025809288
104	0xbd2ab096	-0.04167231
105	0x3d04a089	0.03237966
106	0xbcbc126d	-0.022958005
107	0xbbb1a8e7	-0.005421746
108	0x3d88d43f	0.06681108
109	0xbce2ae5b	-0.02767103
110	0xbc65c826	-0.01402477
111	0x3c1bcbe9	0.009509065
112	0xbd934d65	-0.07192496
113	0xbc5f36a3	-0.013623866
114	0xbdb4588e	-0.08805953
115	0x3d828fe7	0.063751034
116	0xbd061f5d	-0.032744754
117	0xbd25a516	-0.04044064
118	0x3b4b24c3	0.0030997253
119	0x3d9e6312	0.0773374
120	0xbd8b0c53	-0.0678946
121	0xbdab3f93	-0.08361735
122	0x3d8419da	0.06450243
123	0xbba9a14e	-0.0051766997
124	0xbd44c01a	-0.048034765
125	0xbd27e721	-0.040991906
126	0xbda94585	-0.08265213
127	0x3cf0afc4	0.029380687
128	0xbdb8033c	-0.08984992
129	0xbdb18b05	-0.08669094
130	0x3cb15e23	0.021651333
131	0xbdae264a	-0.08503397
132	0xbdb74a14	-0.08949676
133	0xbd09c51c	-0.033635244
134	0xbdba9594	-0.09110561
135	0x3d61eb04	0.05515577
136	0x3ac391b9	0.0014920748
137	0x3d2f315e	0.04277169
138	0x3d50d7d2	0.050987072
139	0xbda1b749	-0.07896287
140	0x3d4f13d9	0.050556038
141	0x3cf9bd76	0.03048585
142	0xbd8f902f	-0.07009923
143	0x3ce86f36	0.028373342
144	0x3cfb1ebb	0.030654302
145	0x3db416f6	0.08793442
146	0xbd0f168b	-0.034933608
147	0x3d58a764	0.05289401
148	0x3da57e72	0.08080758
149	0x3d90dcb0	0.07073343
150	0x3d36a539	0.044591162
151	0x3d040247	0.032228734
152	0xbd59f240	-0.053209543
153	0xbbc5af3f	-0.006032854
154	0xbd805ad8	-0.06267327
155	0xbda99b33	-0.08281555
156	0x3d92e9ae	0.07173477
157	0x3d443354	0.047900513
158	0xbcc64fbd	-0.024207944
159	0xbbbbe5ca	-0.00573418
160	0xbce5d1b7	-0.028054101
161	0x3d51bbba	0.05120442
162	0x3d2a630a	0.041598357
163	0xbcdbc9ec	-0.026829682
164	0x3c15aba5	0.0091351615
165	0xbda0d604	-0.0785332
166	0xbc266bc5	-0.01015753
167	0xbc099cd0	-0.008399203
168	0xbd80cc33	-0.06288948
169	0xbd917de4	-0.0710409
170	0xbd997c05	-0.07494358
171	0x3d594c92	0.05305154
172	0xbd969480	-0.07352543
173	0x3d7405ad	0.059575725
174	0xbd536f48	-0.051619798
175	0x3d31ed53	0.04343922
176	0xbca8c0f3	-0.020599818
177	0xbd8ec9a3	-0.06972053
178	0x3d96c77a	0.07362266
179	0x3d6f9091	0.05848748
180	0xbd820a02	-0.06349565
181	0x3c1ec51e	0.009690551
182	0xbd22b0d6	-0.039719425
183	0xbd816721	-0.063184984
184	0x3d23604f	0.03988677
185	0xbd023015	-0.031784136
186	0xbd961f31	-0.07330168
187	0xbd6c43b7	-0.057681765
188	0xbdaa345b	-0.08310767
189	0xbd037114	-0.03209026
190	0xbd836392	-0.06415476
191	0x3d99d534	0.075113684
192	0xbdb3f7a0	-0.08787465
193	0xbc442b3b	-0.011973198
194	0x3d3579fc	0.044305786
195	0x3d9ea100	0.07745552
196	0x3db1bd5e	0.08678697
197	0xbc2c5c53	-0.010520059
198	0x3d510a22	0.051035054
199	0xbd71c141	-0.059022192
200	0xbd054a1d	-0.032541383
201	0xbd86586e	-0.065598354
202	0xbd89d843	-0.06730702
203	0x3c94e6bd	0.01817643
204	0x3d659689	0.056051765
205	0x3d34af79	0.044112656
206	0xbbf2722b	-0.007398864
207	0x3c142865	0.009042834
208	0xbd137ab5	-0.036005694
209	0xb9a7f771	-0.0003203708
210	0xbd4b9d27	-0.04971042
211	0x3d58f2a3	0.05296577
212	0x3cf3d53c	0.029764764
213	0xbd4f0a3b	-0.050546866
214	0x3d875ecd	0.06609879
215	0xbd9bad93	-0.07601466
216	0xbb493d49	-0.0030706695
217	0xbd84eb53	-0.06490197
218	0xbd89f9aa	-0.06737073
219	0xbd1d6dc4	-0.03843476
220	0xbd81c60e	-0.06336604
221	0x3d384c5a	0.04499469
222	0xbd6cbc01	-0.057796482
223	0x3d7b4f7e	0.061355107
224	0xbd2954bf	-0.041340586
225	0x3d7c37fa	0.06157682
226	0xbdbdfb24	-0.09276417
227	0x3d083eff	0.033263203
228	0xbdb2e3dc	-0.08734867
229	0xbd2c49e8	-0.04206267
230	0x3b70b108	0.0036726613
231	0x3c9c8c58	0.01910989
232	0xbcbe3602	-0.023219112
233	0x3ce89019	0.028389024
234	0x3d9db862	0.07701184
235	0xbda0e87c	-0.07856843
236	0xbd464ae5	-0.04841127
237	0xbc2471f4	-0.010036934
238	0xbd53c5d3	-0.05170233
239	0x3d9c154a	0.07621248
240	0xbce79afe	-0.028272148
241	0x3d266e0a	0.040632285
242	0x3d98c8b7	0.07460158
243	0x3d34492e	0.044015102
244	0x3da46153	0.080263756
245	0xbdb10d58	-0.08645123
246	0x3d9cab27	0.07649832
247	0xbd8bc2f8	-0.06824297
248	0xbdb3b696	-0.0877506
249	0xbdac1c56	-0.08403842
250	0xbda36467	-0.079781346
251	0x3c926dc0	0.017874599
252	0xbd2e2d39	-0.042523596
253	0xbd9db150	-0.07699835
254	0xbda5abfd	-0.08089445
255	0xbdb95377	-0.09049123
